ECE 448 MPs/MP 6/dqn.model (torch, 46167 bytes, 6 tensors)

weight f4 [100, 4]
000000 5c 62 a1 bc ea eb b6 3d 28 43 6f bf 7e 95 8c be
       -0.019700222 0.08931716 -0.9346185 -0.27457803
000010 a9 00 89 be ad be cc 3e 80 71 cc 3e a6 3c 9d 3e
       -0.26758316 0.39989224 0.39930344 0.30710334
000020 39 66 64 3e a2 93 42 3e f4 99 27 bf 69 93 9b bd
       0.2230462 0.1900163 -0.6546929 -0.07596476
000030 bd 73 84 be 57 d6 45 be ca 3f 4d 3d aa ef eb bb
       -0.2586955 -0.19320045 0.050109662 -0.007200201
000040 95 7b 84 3c 88 ca 84 3d 5c 76 ee bd 8f 0d de bd
       0.01617221 0.06483942 -0.11643669 -0.1084243
000050 ce eb 3a 3e d1 93 03 3f 13 a1 a5 3d 8a 25 d5 3e
       0.18254015 0.51397425 0.08087363 0.41630203
000060 f3 42 6b be c8 5e 3b bd 70 cb 59 3f 76 c6 c9 be
       -0.22974758 -0.045744687 0.85076046 -0.39409226
000070 13 8d 2a be a2 6c 8b bd bc 6a 8f be b3 88 95 3e
       -0.16655378 -0.068078294 -0.2801112 0.29205856
000080 e0 e6 0a 3b 87 ea b7 be 39 c0 9c bf 51 18 e3 be
       0.002119474 -0.35921118 -1.2246162 -0.4435449
000090 e4 19 e8 be e2 12 cb 3e 48 01 11 3f 19 f7 40 3e
       -0.45332253 0.39662844 0.5664258 0.1884426
0000a0 95 e8 44 3e 0b 0b bb be 6e 86 3c bf db c8 e7 be
       0.19229348 -0.36531863 -0.73642623 -0.45270428
0000b0 35 17 18 bf 3c 00 8f be 82 d0 f1 3e d6 97 87 3e
       -0.5941041 -0.27929866 0.4722939 0.2648303
0000c0 4c ae f9 bd c0 6f b3 3c d2 8c a2 3e 27 70 9e 3e
       -0.121914476 0.021903872 0.31748062 0.3094494
0000d0 35 45 2c bc b7 84 3c bc b2 d5 2d 3f 4f d6 c7 be
       -0.010514547 -0.011506251 0.679042 -0.39030692
0000e0 4a a7 2e 3b 41 8f e1 be 2d 35 f2 be 7c 5f 98 be
       0.0026650005 -0.44054607 -0.47306195 -0.2976035
0000f0 02 83 24 3e a0 13 69 3e af 7c 8b bd a0 4e 6a 3e
       0.160656 0.22761393 -0.06810891 0.22881556
000100 64 77 09 3e ae 9c b5 3d 6f 0d dd 3e b9 81 56 3e
       0.1342445 0.08867775 0.43174312 0.20947923
000110 5a 78 0e 3f f6 cd ff 3e b2 d5 5b bf 79 ed d9 bd
       0.5565239 0.49961823 -0.8587295 -0.106409974
000120 1b 98 a4 3e bf 68 e5 3e 60 a5 f3 3e 00 2f 6f 3e
       0.32147297 0.44806477 0.4758711 0.23357773
000130 49 69 0e 3e 86 b4 e2 be e0 e9 1b 3e d3 66 d1 be
       0.1390735 -0.44278353 0.15225935 -0.4089876
000140 53 73 fc be 9f 3d d3 3e 92 75 f4 3e fa 08 1e bf
       -0.49306735 0.4125795 0.4774595 -0.6173245
000150 b5 1b 46 3e 70 ff c8 bd e4 8c 1f bf 82 6f 80 be
       0.19346507 -0.09814346 -0.6232436 -0.25085074
000160 0a 7c 04 bd 46 62 8d be d4 b1 ac 3e df b1 5e 3e
       -0.032344855 -0.2761404 0.33729422 0.2174754
000170 0e a3 15 3f 7f 82 23 3e bf 42 98 bf 0e 27 82 be
       0.58451927 0.15967749 -1.1895369 -0.2542042
000180 68 8c 3e 3e 38 fa 1d be 0b 14 d8 be f5 3e 60 be
       0.18608248 -0.15427482 -0.42202792 -0.21899016
000190 81 59 2a 3f 05 33 bf 3e 6d 5a 02 bf cb 05 b9 bd
       0.6654282 0.37343612 -0.5091923 -0.09034308
0001a0 89 32 8b be 0f 54 dd bd 10 18 83 bf f6 41 ba be
       -0.27186993 -0.108070485 -1.0241718 -0.3637845
0001b0 41 11 34 be 3c 11 84 3d 36 9f d4 3c 28 56 a4 3e
       -0.17584707 0.064486 0.025954824 0.32096982
0001c0 9f 15 0d be 88 f7 f3 3e 84 a3 2a 3e 82 80 ba be
       -0.13777779 0.4764979 0.16663939 -0.3642617
0001d0 fa 21 05 be 47 be 71 3d aa c2 94 3e 8b e7 55 bc
       -0.13001242 0.059019353 0.29054767 -0.013055692
0001e0 1f d1 04 3e da 09 b9 3d 2f aa c1 3d 71 e2 9f 3e
       0.12970398 0.09035082 0.09456288 0.3122745
0001f0 18 d0 37 bf 7e 03 87 be 8b 61 88 3e 92 88 9d be
       -0.718019 -0.26369852 0.2663692 -0.30768257
000200 fc ea 2b ba e6 f1 b3 be bf e4 16 bd e0 5d 97 3c
       -0.0006558148 -0.3514549 -0.036839243 0.01847738
000210 88 e0 fd be dc fc de 3b 75 44 35 3f 0a 23 24 be
       -0.49585366 0.0068050455 0.7080758 -0.16028991
000220 61 07 13 be 19 e3 4d bb 6b c5 b0 3e 16 60 a3 3e
       -0.14358284 -0.0031415878 0.34525618 0.31909245
000230 34 fb 4b 3f 9c 9c 2e 3e ff 8a 93 3e 7d 7d 91 bd
       0.7968018 0.17051929 0.28816983 -0.07104013
000240 cd df 0c bf 99 7a fb bd 66 a2 1e 3f e2 3c 2d be
       -0.5502899 -0.12279243 0.6196655 -0.16917756
000250 57 f0 15 3e 15 db dc be a8 35 a7 bf dd b0 dd be
       0.14642464 -0.43135896 -1.306325 -0.43298998
000260 6b db a1 be 6c 7f 8a 3e 58 1a 35 3f d4 a0 0c bf
       -0.31612715 0.2705034 0.7074332 -0.54932904
000270 bf 65 00 3f 9a 5b ac be 35 33 29 be c7 8f 76 be
       0.5015525 -0.33663636 -0.1652344 -0.24078284
000280 6e 3e fe 3d f8 d6 07 be b4 92 8e bf bc 25 f3 be
       0.12414251 -0.13265598 -1.113852 -0.47489727
000290 68 1f 55 be 7e a4 b8 bd f0 59 7e bd 4e be 57 3e
       -0.20812762 -0.090157494 -0.06209749 0.21068689
0002a0 2f 2b fc be 0e 4d bd 3d 5b 5a 43 3f de ac 9b be
       -0.49251696 0.09243213 0.76309747 -0.30405325
0002b0 39 a8 6d 3e 91 46 8c 3c 65 f1 85 be 1a 54 36 3e
       0.23208703 0.017123492 -0.26160732 0.1780552
0002c0 f5 33 14 3d 15 77 31 be ae 43 7d 3e e6 8e 01 bf
       0.036182363 -0.17330582 0.24732849 -0.5060867
0002d0 6c 03 87 bc 3b af d8 bd c6 d6 1f 3f f2 8b 44 3c
       -0.016481124 -0.105802976 0.62437093 0.011996256
0002e0 87 32 fb 3e ec 13 2e 3e e5 8e 38 bf f6 cc b9 bd
       0.49061987 0.16999787 -0.7209304 -0.09072296
0002f0 ca fb e8 be c9 76 9c 3e b3 28 1b 3f 8c 2c 48 3e
       -0.455046 0.30559376 0.6060898 0.19548243
000300 29 b1 31 be 53 b4 aa bd 3b 80 7e bf 21 8f 78 be
       -0.17352737 -0.08335175 -0.99414414 -0.2427335
000310 4b ec a4 be 54 07 15 3e 18 db aa be 80 5d 67 bd
       -0.32211527 0.14553577 -0.3337028 -0.056485653
000320 1d 51 5a be 82 7a 32 3e 0a c6 98 bc d1 dd 8a be
       -0.21320005 0.17429546 -0.01864912 -0.27122357
000330 ca 04 c4 be 1b ef bb 3e a0 e9 b2 bb 61 f4 94 3e
       -0.38284904 0.3670586 -0.005459979 0.29092696
000340 e5 69 c7 3d bc 53 2b 3d e4 33 6d 3e 96 0f 55 be
       0.09736995 0.041827902 0.23164326 -0.20806727
000350 01 dd df bc a5 c9 03 be 2b 40 86 3e f4 3d 58 bd
       -0.027327063 -0.1286989 0.2622083 -0.052793458
000360 ac c7 d2 be 0b 8f 31 be e8 72 09 3f c5 02 cb be
       -0.41167963 -0.17339723 0.5369096 -0.3965055
000370 b5 44 69 be ea 5f da 3e 82 7c eb 3e 5b bb 8a bd
       -0.22780116 0.42651302 0.4599343 -0.067740165
000380 83 ac df be 7b af 85 3e 2c fe 0e bf 8f af a8 bd
       -0.43686303 0.26110443 -0.55856586 -0.0823661
000390 60 59 2f be ef a9 2c 3d 81 2d 11 3e 15 5c 81 3e
       -0.17123938 0.04215425 0.14177515 0.25265566
0003a0 e4 b7 66 3e 8e 1f d4 3e f2 44 cc 3e 04 2b 4e be
       0.22531086 0.41430324 0.3989635 -0.20133597
0003b0 a8 9f d6 3b 83 ea ca be ee 28 0d be 93 43 97 3d
       0.006549794 -0.39632043 -0.13785145 0.07385936
0003c0 fc 33 96 3e e1 19 e7 3e 07 f4 83 be c4 52 90 3d
       0.29336536 0.45136932 -0.25772116 0.07047036
0003d0 c7 5c 0a 3f 12 7c fd be 5e 0b cf be fd 12 d7 be
       0.54047817 -0.4950872 -0.4043836 -0.42006674
0003e0 8f 64 87 3d 21 5a e8 bd 8b 7c 82 be 18 90 4c bd
       0.06610977 -0.11345316 -0.25485644 -0.049942106
0003f0 5a 68 14 3f d6 26 47 be 5a d8 ca be de 25 63 be
       0.5797173 -0.19448408 -0.39618188 -0.22182414

bias f4 [100]
000000 4c 8c 0e 3f 30 07 b3 3d ba c1 d8 bd e4 79 31 3f
       0.55682826 0.08741605 -0.105838254 0.69326615
000010 74 50 e7 3e ef 8a d6 be 55 0d 32 3f cc e8 10 3f
       0.45178568 -0.41902873 0.69551593 0.5660522
000020 04 bd 8f bd e1 5f ee 3e 17 42 67 be a3 54 65 be
       -0.07018474 0.46557525 -0.22583805 -0.22395568
000030 dd 08 16 3f ab 46 10 3e cd 52 d7 be d9 bf 9d be
       0.58607274 0.14089458 -0.4205536 -0.3081043
000040 44 21 14 be aa e1 34 bd 06 52 3f 3e 79 52 16 3f
       -0.14465815 -0.044160523 0.18683633 0.58719593
000050 ca ad b6 3d df 49 85 be 56 c0 02 be c5 5b 8e 3e
       0.089198664 -0.26032922 -0.12768683 0.2780439
000060 23 b1 e5 3e 76 aa f7 be 45 a4 60 3d f9 28 bc be
       0.44861707 -0.4837224 0.05484416 -0.3675001
000070 18 6d 16 be 1c 7b 92 3e 40 84 8e be f1 03 8d 3e
       -0.14690053 0.2860955 -0.27835274 0.2754207
000080 26 92 1e 3f 19 62 49 3e be bb d1 be 79 53 a0 bd
       0.61941755 0.19666328 -0.40963548 -0.07828421
000090 9a 7d 45 3e 11 33 77 be 22 49 cc 3e c0 fc 86 be
       0.19286194 -0.24140574 0.39899546 -0.26364708
0000a0 d6 10 ca be 9f b9 d3 be 2a 1d 42 bd 9d 2d 20 3f
       -0.3946597 -0.41352555 -0.047391094 0.625696
0000b0 a0 07 d8 be dd c9 17 3f e3 4f ac bd 42 ca b8 3e
       -0.42193317 0.59292394 -0.08413675 0.3609181
0000c0 e1 d1 cc 3d be 11 db be 72 98 33 3f c0 f5 da 3e
       0.10000969 -0.42786974 0.7015449 0.42765617
0000d0 b5 2a 32 3f 58 c6 e2 3e d2 4c a7 be 51 0c 21 3f
       0.69596416 0.4429195 -0.32675797 0.6290942
0000e0 86 74 99 3c f9 2d a0 3e 1f cd ef be db a8 65 be
       0.01873232 0.31285074 -0.46836182 -0.22427694
0000f0 e9 ca 01 bf fc 8c b0 bd a5 e6 91 3e 5d db 93 be
       -0.5070024 -0.08620641 0.2849628 -0.28878298
000100 36 39 72 3e 20 3f d2 3e 4e 46 4c 3e 32 bd 7e be
       0.23654637 0.41063786 0.19948694 -0.2487686
000110 93 7b 9d be 3e f7 70 be 09 95 c6 3e b5 3e 1d 3f
       -0.30758342 -0.23531815 0.3878558 0.6142381
000120 8e 3e f1 3e 01 40 5f 3d 10 a8 a5 3e f0 26 fb be
       0.47118038 0.0545044 0.32354784 -0.49053144
000130 33 05 cc be 72 0d c1 3e 06 ce b2 be 19 3b ff 3e
       -0.39847717 0.3770557 -0.34922808 0.49849775
000140 f8 b7 b4 be 9c 83 7a be 85 1d 90 be 4c a7 05 3f
       -0.35296607 -0.24464267 -0.28147522 0.522084
000150 ba 4a e0 bd 04 86 02 3f 92 93 d9 3e 03 10 cb 3e
       -0.10951753 0.5098574 0.424954 0.39660653
000160 b6 38 19 3e 04 d2 09 be 90 8a 4c be ed d7 31 3e
       0.1496304 -0.13459021 -0.19974732 0.17367525
000170 11 a7 a6 3e 04 64 13 be 01 4f 23 3f 0e 03 d5 bd
       0.32549337 -0.14393622 0.63792425 -0.10400973
000180 80 a7 bd be 8b 68 4d be 2e 0e 24 3f 1a 0c 1c 3f
       -0.37041855 -0.20059411 0.64084136 0.60955966

weight f4 [100, 100]
000000 6c c8 29 bd 46 69 0c bd 7a 08 12 be ad eb f7 3d
       -0.041450903 -0.034280084 -0.14261046 0.121054985
000010 35 f8 00 3e d3 e6 4a be cb 78 1f 3e 3c a4 de 3d
       0.12594683 -0.19814615 0.15573423 0.10871169
000020 17 62 a6 be 06 a2 34 3e 23 ff 77 be 98 1b b6 bd
       -0.32496712 0.17639932 -0.2421842 -0.08891982
000030 d5 c1 db 3c f3 a8 58 3d 8f 62 4e be a0 a5 bf bd
       0.026825825 0.052895498 -0.20154785 -0.09357762
000040 7f 8d a4 be 90 a3 b7 bd 43 41 24 3e 45 88 3d 3e
       -0.32139203 -0.08966744 0.1604052 0.18509014
000050 f1 51 84 3c d8 d9 89 be c5 2f f3 3c 3a 94 b3 bd
       0.016152354 -0.26924014 0.029685864 -0.08768506
000060 0c 29 75 3d 01 46 26 be 9b c4 9a bd 54 17 2e be
       0.0598536 -0.16237642 -0.07557031 -0.17001086
000070 a9 15 26 3c 88 05 ab 3d 80 51 0f be 12 cd 24 3e
       0.010137 0.083506644 -0.13995934 0.16093853
000080 5b 33 29 3d 47 3a 3e 3e 80 77 4c be 72 20 81 3d
       0.041308742 0.18576919 -0.1996746 0.063050166
000090 0d 2e a4 3d 8f 3e 0d bf 6c 24 95 bc 6b 7a 2e 3e
       0.08016596 -0.5517358 -0.018205844 0.17038886
0000a0 ef 46 a4 be 66 6c 22 be 27 54 1e 3d e7 ee cd 3c
       -0.32085368 -0.15861663 0.038654473 0.025138332
0000b0 9f 93 46 3e 71 38 53 3e c6 c4 47 be aa 0c 43 3e
       0.1939225 0.20627 -0.19508657 0.190478
0000c0 32 ee 6c be e7 af 69 3c 17 f5 39 bd 54 66 31 bc
       -0.2313774 0.01426313 -0.04539975 -0.01082762
0000d0 44 30 5a 3e d5 d1 6b 3d cf 5c 07 bc a8 80 a9 3d
       0.21307474 0.05757316 -0.008261873 0.08276492
0000e0 8e be 20 be 58 4a 6f bb a0 d2 4f bb fe e2 87 bd
       -0.15697691 -0.0036512818 -0.0031711236 -0.06635092
0000f0 ba 2a 8c be 23 c7 72 be 03 1d 8c 3d 98 94 fc 3d
       -0.27376348 -0.23708777 0.06841471 0.123330295
000100 a5 1e 14 be 9a 4d 6b 3e 44 2e b7 3d e7 f0 13 be
       -0.14464815 0.22978821 0.08944371 -0.14447366
000110 69 92 14 be 78 80 8c bb a6 63 17 3e 13 b4 15 3e
       -0.14508976 -0.0042877756 0.14784107 0.14619474
000120 e4 b4 90 3d ef a6 d4 bd 4d e8 51 3e 0b 80 a9 3d
       0.07065752 -0.103834026 0.20498772 0.082763754
000130 ce aa 37 be 9f 76 7e 3d 35 b9 ab bd 9f 39 61 3e
       -0.1793625 0.062124845 -0.08384935 0.21994637
000140 68 36 e9 bc a3 01 aa bc c2 e9 95 be 67 39 ac 3d
       -0.028468326 -0.020752734 -0.29279906 0.08409386
000150 31 f3 94 be 16 f2 e7 3c 41 14 26 3e 6c 65 cf 3d
       -0.2909179 0.028313678 0.16218664 0.101267666
000160 d2 59 56 3e 7e 7c 2e 3d b9 32 03 be 45 f8 a2 bd
       0.20932701 0.042599194 -0.12812318 -0.0795751
000170 21 94 b1 bd 86 86 c0 be 7e 66 0f 3e fc 61 b1 bd
       -0.086708315 -0.37602633 0.14003941 -0.08661267
000180 9d af ff bd 2e 0b 50 3c 92 26 36 3e 3c f9 31 3e
       -0.124846675 0.012697978 0.17788151 0.17380232
000190 8e 23 b4 be 3b 11 23 3d 78 cf 51 bd 0c 68 53 3d
       -0.35183376 0.039811354 -0.05122325 0.0516129
0001a0 34 1b 7a be c2 71 7c bd 1a f9 f6 bd 36 50 6c bd
       -0.2442444 -0.061631925 -0.12059231 -0.057693683
0001b0 bf b3 96 bd 37 81 de ba cd 34 d0 bb 71 9e 1f 3c
       -0.073585026 -0.0016975765 -0.0063539506 0.009742365
0001c0 fb f2 ae 3d 03 09 a7 bd 84 cf 3d 3c 81 23 b4 3d
       0.085424386 -0.08156016 0.01158512 0.08795834
0001d0 b3 a7 3f 3e 75 e6 da 3c 96 d8 18 3e 3a 9d 17 be
       0.18716316 0.026721219 0.14926371 -0.14806071
0001e0 04 f7 1b be 3e 9e c4 3d 77 61 8a 3d f7 46 98 be
       -0.15230948 0.09600495 0.06756871 -0.29741642
0001f0 fb 8d af be 8f 2c 79 bd f6 f1 86 3d 75 0f 0d 3e
       -0.3428801 -0.06083351 0.06589119 0.13775428
000200 28 ae ba bd e2 ec fe bb e8 35 5d 3e b0 a2 48 bd
       -0.09115249 -0.0077797035 0.21602595 -0.048983276
000210 90 6c 0e bc 8a 90 a7 3c e1 42 3a 3e 3a 44 61 bd
       -0.0086928755 0.020454664 0.18189575 -0.054996707
000220 61 dd c6 bc 76 0a e0 bd dd db 24 be bd 66 1d 3d
       -0.024275484 -0.10939495 -0.16099496 0.038428057
000230 97 87 72 bd e0 ae 02 3e 2f 2e d5 3c c7 3d eb bc
       -0.05921134 0.12762022 0.026022999 -0.028715981
000240 34 c8 84 bd 7c 97 92 3d b9 68 88 bd 7b 25 e7 3d
       -0.06483498 0.071577996 -0.06660599 0.11286446
000250 2a 4f 58 be ac 0e c5 bc 07 01 06 be dd bd 21 bd
       -0.21123949 -0.024054848 -0.1308633 -0.03948771
000260 d2 fe 01 bd 3f 19 d9 bd 7d 55 ba bd 94 ad 1f be
       -0.031737156 -0.106005184 -0.09098337 -0.15593559
000270 ed e4 c7 bd eb 39 db 3d 1d 8b 43 bd a7 e7 62 3d
       -0.09760461 0.10704406 -0.04774009 0.055396702
000280 14 61 cd bc f3 a6 9f bd 4d bd 1c 3c 3a 07 aa bd
       -0.025070705 -0.07795515 0.009566617 -0.083021596
000290 b1 7c 05 be b3 d8 dc 3d f1 60 6a bd 37 15 c3 3d
       -0.13035847 0.107835196 -0.057221357 0.09525531
0002a0 70 83 ca bc 18 e5 d5 3d 39 c9 ea bd a8 38 db bd
       -0.024720877 0.10444087 -0.114641614 -0.10704166
0002b0 ee 0a 5f bd e8 52 f7 3c ba 67 4e bd b9 3f 9d 3d
       -0.054453783 0.0301909 -0.05039189 0.0767817
0002c0 c4 96 7c 3d 7a aa 96 be 50 b7 39 3e 5d 4b 42 bd
       0.06166722 -0.29426938 0.18136334 -0.047435153
0002d0 d9 88 b3 3d 3f a1 45 bd 8d c1 c6 3b 45 bd a4 bd
       0.08766336 -0.04824948 0.0060655535 -0.08043913
0002e0 a6 62 55 3e 50 d7 7a 3d f5 34 45 3a 89 f3 ad bd
       0.20838413 0.061240494 0.0007522845 -0.08493716
0002f0 8a 36 b3 3d 7c 0c f5 3c ef c3 bf 3d 92 f0 2a be
       0.08750637 0.02991318 0.09363543 -0.16693333
000300 01 a7 84 3d 6d da 9e 3d aa 9f 86 3c 0a 4a 2d bc
       0.06477166 0.07756505 0.016433556 -0.010576734
000310 10 f8 94 3d 66 d9 97 bd 48 ee 20 bb 6a 57 6a bc
       0.07273877 -0.07414512 -0.002455609 -0.014303068
000320 7f ca 39 bd 6e 43 31 be 0d 73 f3 bd 87 e7 2b 3d
       -0.04535913 -0.17310879 -0.118871786 0.04196885
000330 6b da 05 be df 11 76 bc 1f cb a4 3b f2 4f 9b 3d
       -0.13071601 -0.015018909 0.0050290967 0.07583608
000340 7c b9 bc 3c 88 03 45 3b bd df 35 3d 11 50 f7 bb
       0.023037665 0.003006192 0.044402827 -0.0075473865
000350 f1 19 32 be 18 80 46 be e0 96 8c 3e ae 31 e3 bc
       -0.17392708 -0.19384801 0.27458858 -0.02773365
000360 62 c3 9c bc 3b 68 d8 bb 3a 9e 64 3d 35 c3 95 3d
       -0.019136135 -0.006604222 0.05581496 0.073126234
000370 0f f3 40 3e e8 cc c4 bd 54 5c bd bd 06 7b a0 be
       0.1884272 -0.09609395 -0.09246126 -0.3134386
000380 30 44 d8 bd c6 71 6c 3c ab 1e 2c 3e 2a ed f7 bd
       -0.10559881 0.014431423 0.16808574 -0.12105782
000390 7e ff c9 3c d4 16 9d bd 10 90 d0 bc 80 1b 00 3e
       0.024657961 -0.0767037 -0.02545932 0.1251049
0003a0 0b 16 d5 bc 79 07 47 3d bc 0a e9 bd 8c 4b 97 3d
       -0.026011487 0.04859111 -0.113790005 0.07387456
0003b0 95 26 f3 3c 45 bc 03 3d 14 6d 28 3d aa f2 2e 3b
       0.029681483 0.03216197 0.04111965 0.0026694932
0003c0 b5 6e 43 be de 54 83 bb e1 b0 5b 3e 8d 60 bf be
       -0.190852 -0.0040079197 0.21454193 -0.3737835
0003d0 41 d2 27 3c ca 39 1a 3c 64 bd 13 3d 62 90 c8 bd
       0.0102429995 0.009413192 0.03606929 -0.09793164
0003e0 5b f2 65 3d e1 a1 7a 3d d8 8f bf bd 83 16 b3 bd
       0.05613933 0.061189536 -0.09353608 -0.08744528
0003f0 09 e1 93 bc cb 42 38 3d 12 6d 0f 3e b9 06 c7 bd
       -0.018051641 0.044985574 0.14006451 -0.09718079

bias f4 [100]
000000 84 3d 2e 3e 67 96 3a be 55 5f 9d bc 0e f1 c5 3d
       0.17015654 -0.18221436 -0.019210497 0.09665118
000010 2b f1 52 bc 7a 05 89 bd 6e fb a5 bd 95 80 3c 3e
       -0.012874882 -0.06690498 -0.08104597 0.18408425
000020 f1 01 31 3e 52 67 90 3e a5 f7 4a 3e 0c e7 87 3c
       0.17285897 0.28203827 0.19821031 0.016589664
000030 4d 5d 1b bc ad 6b 18 be d6 53 c5 3c db 8b b8 3d
       -0.009482694 -0.14884825 0.024087828 0.0901105
000040 89 28 bf 3d dd 27 64 3b 30 85 fe bb d7 15 e0 bd
       0.09333903 0.00348138 -0.007767342 -0.109416656
000050 cd 8c 0a 3e f2 97 c0 3d 48 7c 95 3e 87 90 b8 bd
       0.13530274 0.09403981 0.29196382 -0.090119414
000060 0d 2c 37 3c 0d 92 86 3c 12 2a d8 3d fa 8f 16 bd
       0.011179936 0.016427064 0.10554899 -0.0367584
000070 a2 1f 12 bc 85 b8 a7 3d fc 89 2f 3e 6f b7 5f 3e
       -0.008918675 0.08189491 0.1714248 0.21847318
000080 ae 16 ac 3d fa 4f 55 3d a1 1c ec bd fa f4 05 ba
       0.08402763 0.052078225 -0.11528898 -0.0005110052
000090 ea d0 74 3c 0f 44 b9 bb 41 7c f7 3c 48 ac 9b 3c
       0.014942387 -0.005653865 0.030210616 0.019003049
0000a0 74 a6 8f bd 12 42 f2 bc 7d 77 79 3c e6 7b 36 3d
       -0.0701417 -0.02957252 0.015226242 0.044551753
0000b0 ed 60 8a bd 88 f9 62 bd ce 6f 2d bd b0 01 c4 bd
       -0.067567684 -0.055413753 -0.042342953 -0.09570634
0000c0 5b 33 10 bc 06 9f b4 bd 41 84 ab bd a6 c1 34 3e
       -0.008801307 -0.08819394 -0.08374835 0.17651996
0000d0 cd 61 9d bd 74 e2 e7 3d 86 88 52 3d 82 93 18 3e
       -0.0768467 0.113224894 0.05139973 0.1490002
0000e0 4c f5 90 3d 8f 2b 4d bd 49 cd f4 3d 73 f5 ba 3d
       0.07078037 -0.05009037 0.119532175 0.09128847
0000f0 e0 33 c0 3d db 6d 06 bd 1c 87 55 3c 63 fc 95 bc
       0.09384894 -0.03281961 0.013032701 -0.018308824
000100 fe b5 af bd 96 17 8f 3e d7 1c cd 3c 42 cf e3 3d
       -0.08579634 0.27947682 0.025038166 0.11123516
000110 0b 98 77 bd dd d9 36 bd 59 af bf 3d a6 3b b5 3c
       -0.060447734 -0.044641364 0.09359617 0.02212317
000120 a2 bf 6a 3d 72 d7 1d 3d 11 dc cd 3d af 5f 08 be
       0.05731166 0.038535543 0.1005174 -0.1331775
000130 5b 76 76 3d 60 1b 48 3d ed de 03 3d be c5 9a bd
       0.060171466 0.04885423 0.03219502 -0.075572476
000140 90 08 af 3d 55 e6 b9 bd 04 4e 32 bd 69 48 ad bd
       0.08546555 -0.090771355 -0.043531433 -0.08461077
000150 4a 65 6c 3e 2b 75 88 3d a0 00 24 bb 75 07 72 3e
       0.23085514 0.06662973 -0.0025024787 0.23635657
000160 01 98 ec 3c b2 f4 53 3e 0d ea e2 3d 31 ea ed bd
       0.028881075 0.20698813 0.11079798 -0.11616934
000170 f0 9d 0c be 97 01 c5 bc ab 67 e3 bd 99 26 c6 3d
       -0.13732123 -0.02404861 -0.111037575 0.09675331
000180 42 6e 0b bc fd 87 21 bd da b4 ad 3d ef 96 82 3d
       -0.008510174 -0.03943633 0.0848176 0.063764445

weight f4 [2, 100]
000000 cd f5 0e 3e ed 68 1f be d6 fb 02 be c4 5d 8b be
       0.13960953 -0.1556737 -0.1279138 -0.27219975
000010 48 50 7d be be c5 d9 3d 1d 92 85 bd 39 a0 ae 3d
       -0.24737656 0.106334195 -0.065220095 0.08526654
000020 a1 6f fa 3d b4 f8 f2 3d 7b 60 0b 3e db 6e ed 3d
       0.12228323 0.118638426 0.13611023 0.1159341
000030 f9 88 0e bd 17 68 c1 bd 82 3f 70 bd 27 ca 73 bc
       -0.034798596 -0.09443682 -0.058654316 -0.01487974
000040 e7 3e d3 3d a6 40 94 be c8 65 80 3c 3f 97 5e bd
       0.10314732 -0.28955573 0.015673533 -0.05434346
000050 30 64 83 3e 59 3f c3 3d dc dd f5 3d 83 96 92 3d
       0.25662374 0.09533567 0.12005207 0.07157614
000060 2b f7 a2 3d 10 9b b8 3d 62 0a 1e 3e 21 da 43 bd
       0.079573 0.09013951 0.15433648 -0.047815446
000070 59 7c 33 3e 0f a6 9e 3d 31 92 32 3e 6d 01 d2 3d
       0.17527904 0.07746517 0.1743858 0.10254178
000080 11 ea 4f bc 05 c7 ad 3d 48 73 84 bb 93 3c 49 be
       -0.012690083 0.084852256 -0.004042063 -0.19652013
000090 31 51 1a be ea 51 1b be 1e 9d 30 be 47 6d 10 be
       -0.15070035 -0.15167966 -0.17247435 -0.14104186
0000a0 a7 b9 63 be c5 93 0b 3c 56 49 02 3e de 12 02 3e
       -0.2223879 0.008519118 0.12723288 0.1270251
0000b0 80 e1 ab bb 00 e3 ba b9 24 fe 75 3d 1f ab 6b be
       -0.0052453876 -0.00035645813 0.06005682 -0.23014496
0000c0 4d 86 28 be b0 e2 1f bd 62 6d 97 be 55 73 c6 3d
       -0.16457482 -0.039034545 -0.2957564 0.096899666
0000d0 0c cd 64 be 4b ff 3d 3e d4 63 75 be 52 8d a1 3d
       -0.22343844 0.18554418 -0.23963863 0.07888283
0000e0 da 78 a8 bd 69 d0 9b 3d 8b e0 0d 3e b3 12 cf bc
       -0.082261756 0.076081105 0.13855188 -0.025277471
0000f0 5a 1f 18 be 8e c4 ab 3d e3 60 b0 be ca 71 91 be
       -0.1485571 0.08387099 -0.3444892 -0.28407127
000100 4c 50 78 3d 7e 28 b4 3d a2 ec 55 3e ee 9a 40 3e
       0.060623452 0.08796786 0.2089105 0.18809101
000110 aa 1a 1c bc ad 45 c7 bd e7 b6 d9 3d 39 1a c1 bd
       -0.009527842 -0.097300865 0.10630589 -0.0942883
000120 14 71 80 bc 8e 91 80 be 6e 5a 0b 3e 65 9f 43 be
       -0.01567892 -0.2511105 0.13608715 -0.19103773
000130 f7 26 6d 3e 97 a3 64 be dc ce 99 3d a8 ee 99 3d
       0.23159395 -0.2232803 0.075101584 0.07516223
000140 b9 f7 b0 3b 01 f6 28 bd 59 7c 89 3d 3c e6 90 be
       0.0054006246 -0.041250233 0.067131706 -0.28300655
000150 62 b8 9e 3d 42 fd 4d 3e 4b c4 21 3e a1 23 03 3e
       0.07750012 0.20116141 0.15797536 0.1280656
000160 7a 38 3c be 2b a5 bd 3d b6 8b 83 3d cd 9c 5b be
       -0.18380919 0.09260019 0.06423132 -0.21446534
000170 c5 a2 f3 bd 07 eb 2d 3d 82 96 81 be 67 03 8c 3e
       -0.1189628 0.042460468 -0.2531014 0.27346346
000180 f3 bf 8d be d6 42 5f 3d 59 6e 43 be 6e 1d f1 3d
       -0.27685508 0.0545071 -0.19085063 0.117731914
000190 91 0f 58 3e d5 fe 0c be 20 a3 de bd 4a fb 48 be
       0.21099688 -0.13769086 -0.108709574 -0.19627109
0001a0 54 0f a1 be 9b c0 fd 3d 03 92 39 bd 18 46 af 3d
       -0.31457007 0.12390252 -0.045305263 0.08558291
0001b0 61 cb dd 3d 5c e3 e7 3d b7 44 cc 3d de fc a1 3d
       0.10829807 0.11322662 0.09974044 0.07909559
0001c0 03 2c 26 be 8f 10 e1 bd 98 d1 11 be 9a 98 50 3e
       -0.16227727 -0.109894864 -0.1424011 0.20370713
0001d0 59 38 b2 3d 76 d1 2f be 22 7a b9 bd 5f 28 c9 bd
       0.08702154 -0.17169747 -0.09056498 -0.09822153
0001e0 53 dd 05 3e 22 5c 0e 3e 95 33 e3 3d 1d 72 b5 bd
       0.1307271 0.13902333 0.11093823 -0.08859656
0001f0 21 92 e4 bd 40 64 2c 3e ea 15 1d 3e 5b 3c 8f bd
       -0.111606844 0.16835117 0.15340391 -0.06993934
000200 ce a5 f6 3d 06 87 7c 3d 98 03 35 3e d8 73 de 3d
       0.120433435 0.061652206 0.17677152 0.10861939
000210 db f3 ef bd 31 5e bc bc a0 80 21 be 50 52 7e be
       -0.117164336 -0.022994133 -0.15771723 -0.24836087
000220 3f 3a 88 be 42 cf 83 3d 9a a3 26 be d9 35 f6 3b
       -0.26606938 0.06436016 -0.16273347 0.0075137434
000230 8a 9e 89 be df 15 7c 3b a8 8d 17 3e 83 11 3d 3e
       -0.26878768 0.0038465185 0.14800131 0.18463711
000240 19 10 9d ba 36 8d 2f bd 60 7b 14 3e 16 1c 7a be
       -0.0011982947 -0.04285928 0.14500189 -0.24424776
000250 a9 dc 0e be 80 d3 9c 3b 6f 40 3a be b3 e5 8d 3d
       -0.13951363 0.004785955 -0.18188642 0.06928577
000260 3d bd 39 be bc c2 af 3d d1 6c 38 be 12 28 b2 3d
       -0.18138595 0.085820645 -0.1801026 0.08699049
000270 c1 22 bc bd c9 d2 a1 3d 8f 2b b1 3d 2f 77 31 be
       -0.09186316 0.07901532 0.08650886 -0.17330621
000280 22 5b 53 3c 62 8f 12 3e fb 97 f8 bd aa 19 52 be
       0.012900146 0.14312509 -0.12138363 -0.20517603
000290 62 8a db 3c de bd ba 3d b2 52 f4 3d d5 c1 ef 3d
       0.026799385 0.091182455 0.119298354 0.117068924
0002a0 41 c9 8e bb f8 ce 6c be 03 45 62 3e 71 86 31 3c
       -0.0043574874 -0.23125827 0.22096638 0.010835276
0002b0 3a a7 33 bd eb a3 c4 bd ac d9 a2 3c 6a 1e 16 be
       -0.04386065 -0.09601577 0.019879185 -0.1466004
0002c0 99 61 32 3e 1a bd 50 be 8c c9 bf 3d 38 ec cb bc
       0.17420043 -0.20384637 0.09364614 -0.024892911
0002d0 34 bc 80 3d ed 57 0a 3c 68 dc 13 be 2e 24 89 be
       0.06285897 0.008443815 -0.14439547 -0.26785415
0002e0 05 50 ab 3d 3e 06 03 3e ef 36 5d 3e bf c5 14 3e
       0.08364872 0.1279535 0.21602987 0.14528559
0002f0 fb c0 57 be 23 36 a6 3d 54 6b 87 3d e8 0a d4 3d
       -0.2106971 0.081157945 0.06612268 0.10353643
000300 3b 57 14 be ef 6c 19 3d 51 2c 97 be a1 dd a1 3d
       -0.14486401 0.037457403 -0.29525998 0.079036005
000310 a6 26 cb 3d c2 3b 70 3d 8c a1 8a be 46 fd 63 3e
       0.09919481 0.05865074 -0.27076375 0.22264585

bias f4 [2]
000000 39 96 2d bd cb d4 e2 3d
       -0.04237959 0.11075743
